碳排放预测v1.1.0/model/model.pth (torch, 239054 bytes, 15 tensors)

fc1.weight f4 [256, 10]
0.021588042 -0.008494761 -0.27360484 0.10075833 0.17232642 0.25013575 -0.088973306 -0.44726148
-0.16867211 0.24479681 -0.47954434 0.19551972 0.33263135 0.10195864 -0.14031048 -0.07939463
-0.573808 -0.5092016 0.24057902 -0.03235244 0.22017434 0.32186702 0.17853855 0.28885123
0.2166642 0.1641136 -0.26751024 -0.23412721 -0.06722832 -0.3292237 0.20112973 -0.11492329
-0.21210517 -0.238922 -0.10954535 -0.22029051 0.24410523 0.3841077 -0.026592338 -0.37011224
-0.0035527018 0.028359648 -0.085853204 -0.020273237 -0.4793651 0.053474955 0.13918965 0.14021364
0.23304199 -0.08794731 -0.349198 0.0718402 0.09310657 0.2681099 -0.06181933 0.044559326
-0.15237138 0.28580007 -0.14593793 -0.06422535 0.049652334 -0.04384308 0.28936112 -0.3041857
-0.04015767 0.23594025 0.08974172 -0.22143961 0.27120125 0.012693719 -0.0020308187 -0.1149065
0.36448798 0.40268618 0.23319668 -0.035453573 0.22636226 -0.35049006 -0.22386487 -0.47387475
-0.079793125 -0.18502319 -0.1285708 -0.19249299 -0.045077793 0.028915025 0.23854539 0.111808814
0.12325141 -0.09835746 -0.1878693 -0.3038758 -0.3158034 -0.22198413 -0.070718005 0.20174858
-0.21903077 -0.3012303 0.04742378 0.19247499 -0.21437153 0.23107442 0.13320476 -0.2971046
-0.004797101 -0.26863778 0.043966055 0.14312744 -0.307569 0.2165409 0.3922171 0.3115401
-0.15231997 0.0349878 -0.10324069 -0.18861368 -0.044428322 0.007517253 0.07542967 0.39461482
0.3256377 -0.5075003 -0.45060983 -0.00934025 0.069404036 -0.0715599 0.40356866 0.30939686
0.03874129 -0.33213237 0.27513117 0.23380536 -0.2728947 -0.35079977 -0.29611352 -0.16810393
-0.5177434 -0.072222464 0.28260168 -0.037353426 0.20091608 -0.25395474 -0.43259236 -0.06804261
-0.26425287 0.09339868 0.4509982 0.3814556 0.01923748 -0.3926538 0.16809127 0.23675272
-0.24107864 -0.2117952 0.22378609 -0.27482533 0.10136011 0.1342214 -0.27368045 -0.29852164
-0.08190897 -0.039825793 -0.29847008 -0.22963873 0.28900027 -0.07900903 -0.27638197 0.068723015
-0.043377277 0.41766965 0.23805618 0.030216776 -0.35454163 -0.4830051 0.04048632 -0.40460086
-0.037850626 0.27203506 0.28287765 0.37173188 -0.22130305 -0.04452905 -0.25670084 0.047756463
0.1335049 0.18758437 -0.109728694 -0.27891123 -0.045836538 -0.14307764 0.00016187815 -0.30094537
0.09145217 0.11808358 0.15459588 -0.18797755 0.117688656 -0.020060668 0.3450067 -0.32816285
-0.19565706 -0.13762534 -0.038350135 -0.14551896 -0.19693308 -0.12732854 -0.1622568 -0.123785034
-0.096848786 0.087085634 0.0041658552 -0.059985373 -0.18588056 0.02748681 -0.37044525 0.17590466
-0.0045996425 0.16809808 -0.06913996 0.06733592 -0.1313201 -0.123693965 -0.030317469 -0.4362546
-0.5114542 -0.09035301 -0.02469721 0.20789883 -0.05754265 0.043976504 -0.19178498 -0.12153469
0.077938765 0.16767049 0.10250336 -0.11013609 0.030680835 0.23155221 -0.02560088 0.19147298
-0.18879834 -0.17572072 -0.3942907 -0.15004236 0.114033364 -0.23466574 0.26176605 0.26530784
0.3114003 0.3423544 -0.17402682 -0.28630096 -0.28043646 0.038728565 0.12607598 0.03798449
00000000: 68d9 b03c 9c2d 0bbc ef15 8cbe 625a ce3d
00000010: 5676 303e cb11 803e a337 b6bd 75ff e4be
00000020: 62b8 2cbe 04ac 7a3e d686 f5be 5236 483e
00000030: a84e aa3e b1cf d03d 8dad 0fbe a799 a2bd
00000040: 15e5 12bf 095b 02bf 595a 763e fe83 04bd
00000050: 6275 613e c1cb a43e cfd2 363e 4fe4 933e
00000060: 38dd 5d3e 650d 283e 1af7 88be 0bbf 6fbe
00000070: 00af 89bd 0290 a8be f4f4 4d3e e75c ebbd
00000080: 1932 59be f8a7 74be 5059 e0bd d693 61be
00000090: b9f6 793e c4a9 c43e 2dd8 d9bc 5a7f bdbe
000000a0: 72d4 68bb 7e52 e83c ced3 afbd 0f14 a6bc
000000b0: 586f f5be 8e08 5b3d bb87 0e3e 2a94 0f3e
000000c0: 8fa2 6e3e b81d b4bd 15ca b2be f420 933d
000000d0: a8ae be3d b345 893e 4436 7dbd d783 363d
000000e0: 3e07 1cbe 6354 923e c170 15be 9588 83bd
000000f0: 3f60 4b3d cd94 33bd 2427 943e 3abe 9bbe
00000100: 5e7c 24bd 529a 713e 82ca b73d 11c1 62be
00000110: e4da 8a3e 51f9 4f3c 7c17 05bb 1954 ebbd
00000120: 2b9e ba3e e22c ce3e 1ccb 6e3e c437 11bd
00000130: 82cb 673e 6f73 b3be d53c 65be b69f f2be
00000140: 946a a3bd b876 3dbe 10a8 03be e21c 45be
00000150: 7ea3 38bd 34df ec3c 3e45 743e 05fc e43d
00000160: 3c6b fc3d a36f c9bd cf60 40be 9c95 9bbe
00000170: fcb0 a1be cf4f 63be 9ad4 90bd 2e97 4e3e
00000180: 9a49 60be dc3a 9abe 703f 423d 2a18 453e
00000190: 3684 5bbe c69e 6c3e d466 083e 181e 98be
000001a0: 0031 9dbb e48a 89be c015 343d 0090 123e
000001b0: af79 9dbe e6bc 5d3e aed0 c83e 2f82 9f3e
000001c0: c4f9 1bbe 5e4f 0f3d db6f d3bd f223 41be
000001d0: 79fa 35bd 4a53 f63b df7a 9a3d f40a ca3e
000001e0: fcb9 a63e 8aeb 01bf 55b6 e6be d907 19bc
000001f0: b423 8e3d ff8d 92bd 8da0 ce3e 4469 9e3e
00000200: 30af 1e3d 410d aabe fedd 8c3e ac6a 6f3e
00000210: dbb8 8bbe 079c b3be 319c 97be 7023 2cbe
00000220: d58a 04bf 5fe9 93bd 2bb1 903e e8ff 18bd
00000230: f2bc 4d3e 5b06 82be bf7c ddbe ed59 8bbd
00000240: 274c 87be cf47 bf3d 3ce9 e63e 264e c33e
00000250: eb97 9d3c eb09 c9be 1e20 2c3e 4e6f 723e
00000260: 52dd 76be d7e0 58be 2e28 653e e8b5 8cbe
00000270: e495 cf3d 5671 093e d81f 8cbe d4d7 98be
00000280: e4bf a7bd 5f20 23bd 12d1 98be 6a26 6bbe
00000290: d8f7 933e 7ccf a1bd f081 8dbe a7be 8c3d
000002a0: 5fac 31bd ccd8 d53e 00c5 733e 2c89 f73c
000002b0: 7b86 b5be 724c f7be fcd4 253d d827 cfbe
000002c0: 4209 1bbd 2e48 8b3e 57d5 903e a453 be3e
000002d0: 449d 62be 1864 36bd 4b6e 83be 489c 433d
000002e0: 82b5 083e 1e16 403e 70b9 e0bd 74cd 8ebe
000002f0: 18bf 3bbd f282 12be d6bd 2939 8315 9abe
00000300: 464b bb3d ced5 f13d 624e 1e3e 307d 40be
00000310: c006 f13d 4556 a4bc b8a4 b03e f604 a8be
00000320: 535a 48be a8ed 0cbe 0815 1dbd ec02 15be
00000330: d3a8 49be 6a62 02be a626 26be 0283 fdbd
00000340: a858 c6bd f459 b23d ba81 883b 39b3 75bd
00000350: 7957 3ebe 052c e13c 00ab bdbe 5a20 343e
00000360: 99b8 96bb e721 2c3e 4099 8dbd 6ae7 893d
00000370: c778 06be 4353 fdbd 575c f8bc c35c dfbe
00000380: aaee 02bf 000b b9bd ce51 cabc 6ee3 543e
00000390: d7b1 6bbd b520 343d 4863 44be 2ee7 f8bd
000003a0: 5c9e 9f3d d0b1 2b3e 48ed d13d 088f e1bd
000003b0: 6056 fb3c 061c 6d3e f0b8 d1bc 7e11 443e
000003c0: 5a54 41be 22f0 33be 78e0 c9be b4a4 19be
000003d0: 538a e93d 374c 70be 3306 863e 6ed6 873e
000003e0: dc6f 9f3e 1349 af3e 1634 32be 0a96 92be
000003f0: 5e95 8fbe d8a1 1e3d 101a 013e a095 1b3d

fc1.bias f4 [256]
0.11702512 0.23088972 -0.27903786 0.24437793 -0.19388552 -0.04368671 -0.3045018 -0.022248862
-0.07527092 -0.11227025 -0.17010698 -0.4656087 0.007421929 0.16512223 0.018905705 -0.20388177
0.1600915 -0.05255152 -0.08566181 -0.04985445 -0.22162807 -0.08884489 0.40497497 -0.2939369
-0.109575324 -0.13757508 -0.04146414 -0.2605003 0.12340615 -0.20036994 0.18328361 0.19677728
0.122863494 -0.13873601 0.12914178 -0.028057069 -0.06077847 -0.2549444 -0.06748448 0.18562359
-0.14594068 0.1206666 0.0511465 0.17572321 0.14989497 0.33468923 0.007314608 0.013527313
0.18347704 0.17177822 -0.27885976 0.3367023 -0.22848718 -0.14539869 0.15340729 -0.27999124
-0.3848239 -0.16829757 0.13070045 0.09646446 -0.12633507 -0.25991064 0.23217213 0.33960116
0.30012235 0.116280235 0.0126302065 -0.060436428 0.08250991 0.17950833 -0.25428125 0.039188825
-0.118076265 -0.0012088139 -0.16149601 0.20979537 -0.29502463 0.13405712 -0.08230357 -0.10448176
0.18576212 0.0028642137 0.17035559 -0.0940274 -0.12812881 -0.12570067 -0.034479216 0.08870521
0.19897795 0.18075867 0.30288967 -0.010134493 0.017878009 -0.31488582 0.017105373 0.07451601
-0.0732113 -0.2869952 -0.27966604 0.14755127 -0.20836866 0.20628497 0.25310194 -0.179594
0.20983389 -0.26291785 -0.05872506 -0.15077174 0.25500977 0.38599527 -0.20426644 -0.2562766
-0.10057924 -0.2877511 0.2817095 -0.22330028 0.1263148 0.07248729 0.049881447 -0.10779871
-0.51142895 -0.072633274 0.048299026 0.09861467 -0.17053725 0.17031202 0.086409785 -0.1765373
-0.22635345 -0.25700682 0.21006034 -0.077654235 0.14621301 -0.29602346 0.14307828 -0.12786324
0.21434341 -0.17882985 0.033026353 0.12367077 0.11675835 -0.02523762 -0.05375337 0.23881564
-0.110040605 -0.13300353 0.16013394 0.040074714 0.27059168 0.1189919 -0.062318254 0.097184114
0.06671885 -0.1201947 0.0069013075 0.1484593 -0.42509604 -0.13301322 0.017795738 0.04429661
0.02566302 0.025461305 0.03251631 -0.11027851 -0.29489493 0.31561926 -0.17450795 0.14081119
-0.23828766 0.2600251 0.036206286 -0.17188731 -0.30545092 0.16297838 -0.26095805 -0.21968517
-0.2844969 0.03593136 -0.24449262 -0.21235007 0.11624237 -0.23322976 -0.014822966 -0.31232727
-0.14567515 0.20495273 0.18809536 0.14824733 -0.04827282 -0.124564126 0.03949579 0.03372216
-0.08016428 -0.16088331 -0.12609158 0.13216522 0.24584188 0.42901266 -0.110507265 0.19076179
0.15816908 0.107485585 -0.24851152 -0.08061527 -0.17504174 0.2909047 0.023468291 0.16763236
0.07933074 0.004176031 -0.072179675 -0.16022941 -0.04281247 0.29079413 -0.30054137 -0.38748494
0.21776825 -0.3125225 -0.14628866 -0.12172398 0.13518539 0.009639033 0.017233646 0.026303068
0.045741715 0.23122631 0.22089332 0.24161488 0.1480964 -0.16727793 0.287098 0.1132822
0.21482965 -0.57165056 0.14489838 0.029855674 0.18960926 0.30833006 0.116299905 0.1093154
0.20770897 -0.13427222 -0.11698942 -0.50188005 -0.13169025 0.18752688 0.19519003 0.22129533
0.051662076 0.12815636 0.085001625 -0.16956139 -0.28136715 0.0138993645 -0.31450108 0.15632921
00000000: deaa ef3d 5b6e 6c3e 0dde 8ebe 353e 7a3e
00000010: ed89 46be d6f0 32bd a9e7 9bbe 3f43 b6bc
00000020: a427 9abd f2ed e5bd 8630 2ebe 4364 eebe
00000030: a733 f33b cd15 293e 23e0 9a3c 62c6 50be
00000040: 07ef 233e 4340 57bd 766f afbd 2e34 4cbd
00000050: 78f2 62be 4ff4 b5bd e158 cf3e e67e 96be
00000060: 0769 e0bd 7be0 0cbe 4dd6 29bd 4c60 85be
00000070: 5dbc fc3d c72d 4dbe b3ae 3b3e fc7f 493e
00000080: db9f fb3d d010 0ebe be3d 043e f0d7 e5bc
00000090: d8f2 78bd 1388 82be 4e35 8abd 1c14 3e3e
000000a0: 7971 15be 0d20 f73d fe7e 513d c9f0 333e
000000b0: 117e 193e 635c ab3e 61af ef3b aaa1 5d3c
000000c0: 68e1 3b3e a1e6 2f3e b5c6 8ebe 3e64 ac3e
000000d0: 8bf8 69be 65e3 14be cd16 1d3e 035b 8fbe
000000e0: a307 c5be 3356 2cbe 57d6 053e 298f c53d
000000f0: fb5d 01be 0213 85be 88be 6d3e 34e0 ad3e
00000100: a3a9 993e 5524 ee3d edee 4e3c 308c 77bd
00000110: f5fa a83d 08d1 373e 2731 82be 7684 203d
00000120: f8d1 f1bd 1071 9eba 365f 25be 99d4 563e
00000130: 780d 97be 4546 093e c68e a8bd 88fa d5bd
00000140: 6d38 3e3e 88b5 3b3b b271 2e3e 7091 c0bd
00000150: 3334 03be adb7 00be 143a 0dbd 14ab b53d
00000160: e0c0 4b3e cd18 393e 5b14 9b3e 250b 26bc
00000170: e774 923c b738 a1be 9120 8c3c da9b 983d
00000180: ceef 95bd 09f1 92be 6330 8fbe ae17 173e
00000190: 985e 55be 5e3c 533e 9496 813e 7de7 37be
000001a0: b2de 563e 2b9d 86be b089 70bd e863 1abe
000001b0: a490 823e 2ca1 c53e 392b 51be b036 83be
000001c0: 7dfc cdbd 1d54 93be 3a3c 903e d4a8 64be
000001d0: ab58 013e 3774 943d 7d50 4c3d 92c5 dcbd
000001e0: 02ed 02bf c1c0 94bd 33d5 453d 7df6 c93d
000001f0: 51a1 2ebe 4666 2e3e 9df7 b03d 32c6 34be
00000200: 33c9 67be 6696 83be 0f1a 573e 2f09 9fbd
00000210: ddb8 153e 6390 97be 1d83 123e 95ee 02be
00000220: d77c 5b3e 2c1f 37be a446 073d 1a47 fd3d
00000230: 001f ef3d 20bf cebc 7e2c 5cbd 168c 743e
00000240: f85c e1bd 1432 08be 27fa 233e 6225 243d
00000250: fe8a 8a3e 06b2 f33d 6d41 7fbd 7708 c73d
00000260: e4a3 883d a428 f6bd 5d24 e23b b705 183e
00000270: 30a6 d9be 9e34 08be 5ec8 913c 5d70 353d
00000280: 413b d23c 3a94 d03c d32f 053d b3d9 e1bd
00000290: 78fc 96be d998 a13e 36b2 32be cf30 103e
000002a0: ae01 74be 0322 853e 0b4d 143d 3a03 30be
000002b0: 1064 9cbe cee3 263e 4b9c 85be 26f5 60be
000002c0: 94a9 91be c32c 133d 465c 7abe 4c72 59be
000002d0: 7b10 ee3d c8d3 6ebe 07dc 72bc 5ce9 9fbe
000002e0: de2b 15be 21df 513e 129c 403e 26ce 173e
000002f0: b8b9 45bd 7a1b ffbd 56c6 213d 3f20 0a3d
00000300: 2c2d a4bd 98be 24be 271e 01be 5256 073e
00000310: f9bd 7b3e 8ca7 db3e a251 e2bd 0f57 433e
00000320: 13f7 213e 6721 dc3d ce79 7ebe 9e19 a5bd
00000330: 243e 33be 76f1 943e 9340 c03c d1a7 2b3e
00000340: 2878 a23d 16d7 883b f0d2 93bd 2e13 24be
00000350: 215c 2fbd f8e2 943e 8fe0 99be 6d64 c6be
00000360: a4fe 5e3e f302 a0be b2cc 15be 6c4a f9bd
00000370: 0a6e 0a3e 09ed 1d3c 932d 8d3c 8879 d73c
00000380: aa5b 3b3d 97c6 6c3e dc31 623e e469 773e
00000390: 95a6 173e e84a 2bbe 82fe 923e 8000 e83d
000003a0: 4efc 5b3e b157 12bf 3e60 143e e393 f43c
000003b0: ee28 423e 70dd 9d3e a52e ee3d c1e0 df3d
000003c0: a9b1 543e a87e 09be 2698 efbd 367b 00bf
000003d0: cfd9 06be 0c07 403e e5df 473e 3e9b 623e
000003e0: 9d9b 533d 6c3b 033e 5515 ae3d 80a1 2dbe
000003f0: 5b0f 90be 29ba 633c 4906 a1be c414 203e

fc2.weight f4 [64, 256]
-0.019810377 0.2352682 -0.024154743 -0.039384894 -0.039947394 0.016784862 0.04035616 -0.27021593
-0.029824402 0.01498913 0.06064789 -2.1541986 -0.7605394 0.23864946 -0.39145178 0.02166596
-0.02230663 0.5773452 -0.029000267 -0.037537564 0.061649226 -0.032229327 0.21909831 -0.006269969
0.001521099 -0.056318402 -0.053369902 -0.23555355 0.119849466 -0.048924908 0.2491565 0.07249037
-0.053083237 0.008634411 -0.11238492 -2.9736326 -0.041219037 -0.026867233 -0.01977431 -0.11514176
-0.39505723 0.09016913 -0.040730193 -0.098184004 0.081774265 -0.029169444 -0.09170532 -0.8958085
-0.07454086 -0.45485196 0.0073836 0.08240336 0.015168262 0.036120154 0.16669933 0.031534456
-0.21021461 0.02980648 0.00015396238 -0.13598642 -0.036398157 0.0126763955 0.036863312 0.11010045
-0.046615507 -0.061762076 0.18572031 0.054608695 0.05512535 0.021852128 -0.0022478253 -0.12863883
0.022199012 -0.4471569 0.02215606 0.020795317 -0.03864853 -0.17971714 0.3937407 0.12520903
0.0455643 -0.28432465 -0.11462957 -0.0431337 0.02947565 0.021647431 0.1653534 0.0163109
-0.15172647 -0.090202995 0.39780688 -0.06739428 0.0015452122 -0.025301985 0.26225007 -0.08869162
-0.038795125 -0.049371198 -0.022301354 -0.09612523 -0.060067415 0.046971377 0.57879466 0.0108973915
0.07246955 -0.055048443 0.046922408 0.041561477 0.108682245 -0.08372201 -0.005497858 -0.035480253
0.041264094 -0.008255549 0.07258919 -0.005273408 -0.11331572 -0.09964021 -0.052865073 -1.1637969
-1.2046843 -0.11732403 0.21719018 -0.29685882 -0.020335928 0.008404843 -0.0052616447 -0.04998578
0.037247516 -0.23578182 0.08008334 0.037259962 0.0824747 -0.023253657 -0.0539148 -0.024800166
-0.19723202 -0.0422108 -1.1037396 0.0646073 0.10700864 -0.0133946985 -0.094765365 -0.26216152
-0.0557302 0.047552854 -0.03511157 -0.06453943 0.06571469 0.012838212 -0.9774125 -0.14352997
0.21729821 -0.052074917 -0.0012199411 0.010189471 -0.0052790972 0.009260826 -0.20691232 0.051687136
-0.0069566984 0.9463463 -0.26001132 -0.13764352 0.03184489 0.11947813 -0.022186205 -0.13431323
-0.15628655 -0.042380434 0.12302027 0.027612776 -0.03779707 -0.5908173 -0.0033589378 0.01235427
0.020187512 -0.16544509 -0.03725925 0.036676593 0.19714196 0.031469166 0.046419032 -0.060157575
-0.05168525 -0.047470752 0.097275496 0.12113224 -0.017527327 0.026927121 0.08931777 -0.0006032155
-0.07358531 -0.20872453 -0.007385798 0.6516822 0.389446 0.16791879 0.0052036718 0.0028432016
0.14420141 0.07653941 -0.061820358 -0.040965684 -0.01426737 -0.07222243 0.07157504 -0.29446787
-0.059469566 -0.03949045 0.0055218264 0.009887651 -0.0829208 0.040344108 0.034515195 -0.027655907
0.12822837 -0.055898815 -0.037049346 0.001800701 0.21667844 -1.504884 -0.064239636 -0.31699032
-0.05944109 0.007581823 0.07776931 0.57766634 0.00297172 -0.7506072 0.04207041 0.10278343
0.2722045 -2.1014674 -0.14814459 -0.19304219 -0.27324602 0.026353769 0.049535077 -0.0021305291
-0.0018988147 0.021748267 -0.022518054 -0.017237188 -0.2762888 -0.41332713 -0.15926762 0.012086886
0.094980136 0.20285772 -0.096617684 -0.044386193 0.024339326 -0.15528144 0.032514818 0.2338772
00000000: 5f49 a2bc 26ea 703e 2be0 c5bc 0e52 21bd
00000010: e19f 23bd 6880 893c 804c 253d be59 8abe
00000020: 4e52 f4bc f894 753c ec69 783d 64de 09c0
00000030: b6b2 42bf 8660 743e 5e6c c8be d07c b13c
00000040: 65bc b6bc e5cc 133f f891 edbc fdc0 19bd
00000050: e683 7c3d e602 04bd 4f5b 603e 5074 cdbb
00000060: 9d5f c73a 20ae 66bd 669a 5abd f334 71be
00000070: a373 f53d 7c65 48bd e222 7f3e d575 943d
00000080: cf6d 59bd 5877 0d3c 112a e6bd ff4f 3ec0
00000090: 4bd5 28bd ac18 dcbc bcfd a1bc 71cf ebbd
000000a0: f144 cabe 98aa b83d b4d4 26bd b214 c9bd
000000b0: 4479 a73d c2f4 eebc 00d0 bbbd b553 65bf
000000c0: e1a8 98bd 5be2 e8be 20f2 f13b 18c3 a83d
000000d0: 4d84 783c baf2 133d 3bb3 2a3e 462a 013d
000000e0: 8042 57be b82c f43c f670 2139 0640 0bbe
000000f0: 3c16 15bd a8b0 4f3c fcfd 163d 587c e13d
00000100: e7ef 3ebd 3bfa 7cbd 772d 3e3e 5ead 5f3d
00000110: 1ecb 613d 3c03 b33c 4050 13bb e6b9 03be
00000120: b4da b53c c0f1 e4be a080 b53c f15a aa3c
00000130: ec4d 1ebd c507 38be 6298 c93e cc36 003e
00000140: a2a1 3a3d 0093 91be e8c2 eabd f6ac 30bd
00000150: eb76 f13c f455 b13c 6752 293e 709e 853c
00000160: 2f5e 1bbe 59bc b8bd 58ad cb3e 0306 8abd
00000170: b888 ca3a 1c46 cfbc a445 863e f4a3 b5bd
00000180: a3e7 1ebd 7439 4abd 54b1 b6bc 4edd c4bd
00000190: 4009 76bd 0f65 403d e32b 143f f98a 323c
000001a0: ea6a 943d 7a7a 61bd b631 403d 5e3c 2a3d
000001b0: cc94 de3d 7276 abbd 6027 b4bb be53 11bd
000001c0: 8a04 293d 4842 07bc a4a9 943d 8dcc acbb
000001d0: 1212 e8bd 2b10 ccbd 0c89 58bd 4cf7 94bf
000001e0: 1833 9abf 9547 f0bd 1a67 5e3e e1fd 97be
000001f0: 8897 a6bc 77b4 093c e069 acbb e4bd 4cbd
00000200: da90 183d ca70 71be bc02 a43d e79d 183d
00000210: 7fe8 a83d 747e bebc c4d5 5cbd b829 cbbc
00000220: 31f7 49be 3be5 2cbd 5747 8dbf d550 843d
00000230: 5927 db3d 7075 5bbc 5814 c2bd 093a 86be
00000240: 5a45 64bd c8c6 423d 26d1 0fbd 402d 84bd
00000250: 6c95 863d 5d57 523c b537 7abf 85f9 12be
00000260: 6c83 5e3e 824c 55bd 6ee6 9fba bdf1 263c
00000270: 47fc acbb b8ba 173c d3e0 53be e4b5 533d
00000280: 04f5 e3bb c043 723f 3420 85be 6cf2 0cbe
00000290: ca6f 023d f3b0 f43d d8bf b5bc 6889 09be
000002a0: 9509 20be 1b97 2dbd 0df2 fb3d 3034 e23c
000002b0: 1ad1 1abd cd3f 17bf a021 5cbb 9069 4a3c
000002c0: 4860 a53c 706a 29be 289d 18bd 323a 163d
000002d0: 95df 493e d0e5 003d e221 3e3d ca67 76bd
000002e0: eab3 53bd b170 42bd 6038 c73d 2e14 f83d
000002f0: 7895 8fbc 4496 dc3c 3cec b63d 1b21 1eba
00000300: e5b3 96bd e2bb 55be 9004 f2bb a5d4 263f
00000310: 7765 c73e e7f2 2b3e 9083 aa3b 0255 3a3b
00000320: 89a9 133e b2c0 9c3d 5837 7dbd a2cb 27bd
00000330: b0c1 69bc 5ae9 93bd ef95 923d 7ec4 96be
00000340: 5c96 73bd bdc0 21bd 70f0 b43b d0ff 213c
00000350: 61d2 a9bd dd3f 253d ce5f 0d3d a48e e2bc
00000360: 4c4e 033e 28f6 64bd 0ec1 17bd 8005 ec3a
00000370: f4e0 5d3e 0aa0 c0bf 1290 83bd 8e4c a2be
00000380: 8078 73bd f170 f83b 8445 9f3d f1e1 133f
00000390: 30c1 423b cb27 40bf 0652 2c3d 1e80 d23d
000003a0: 635e 8b3e 717e 06c0 37b3 17be daac 45be
000003b0: e7e6 8bbe dce3 d73c 4be5 4a3d 59a0 0bbb
000003c0: a6e1 f8ba 6c29 b23c c877 b8bc 0135 8dbc
000003d0: ba75 8dbe 9d9f d3be 0d17 23be 1308 463c
000003e0: f284 c23d efb9 4f3e 7edf c5bd 4cce 35bd
000003f0: 4463 c73c 1902 1fbe 422e 053d 817d 6f3e

fc2.bias f4 [64]
0.06267202 0.085630104 0.06014126 0.04357693 0.017856369 -0.06379065 -0.028955951 -0.009342626
0.09269411 -0.026174515 -0.013543948 0.017015886 0.078680485 0.06868152 -0.0119291255 -0.083507314
0.07029666 -0.0228103 0.06934044 0.04442758 0.013931273 0.016896171 -0.032993965 -0.014434954
-0.0198025 -0.023481747 0.015882619 -0.012775349 0.059825297 -0.017926687 0.070607275 -0.0562265
-0.024919003 -0.044363245 0.005380958 0.14845642 -0.044366777 -0.032752417 -0.069747336 -0.0155253215
-0.03292339 -0.055254564 -0.026735619 0.0004615213 -0.006441929 0.03133375 -0.047660753 -0.011779055
-0.00060322846 -0.05032522 0.07217276 -0.0011095466 -0.03882597 0.08740017 -0.03173068 -0.03777606
-0.022321638 -0.06460984 0.0689691 -0.021660158 0.087179706 0.08666148 0.13637537 0.031120606
00000000: 305a 803d d65e af3d af56 763d b97d 323d
00000010: 8547 923c aca4 82bd 0835 edbc d011 19bc
00000020: 69d6 bd3d f06b d6bc 6fe7 5dbc e664 8b3c
00000030: 3c23 a13d e6a8 8c3d 6172 43bc e205 abbd
00000040: b2f7 8f3d abdc babc 5c02 8e3d b2f9 353d
00000050: fe3f 643c d769 8a3c ae24 07bd 9680 6cbc
00000060: da38 a2bc cb5c c0bc 441c 823c b34f 51bc
00000070: 5f0b 753d fdda 92bc 8c9a 903d c24d 66bd
00000080: f022 ccbc 3cb6 35bd bf52 b03b f604 183e
00000090: f0b9 35bd 6627 06bd b1d7 8ebd eb5d 7ebc
000000a0: adda 06bd 9c52 62bd a804 dbbc 57f8 f139
000000b0: d116 d3bb d157 003d ec37 43bd f0fc 40bc
000000c0: fa21 1eba d121 4ebd 50cf 933d 356e 91ba
000000d0: fb07 1fbd dcfe b23d 08f8 01bd 12bb 1abd
000000e0: dedb b6bc 2a52 84bd ac3f 8d3d a570 b1bc
000000f0: 468b b23d 937b b13d fca5 0b3e a4f0 fe3c

fc3.weight f4 [1, 64]
0.082963616 0.23982671 0.38633406 0.36400077 -0.017602993 0.010708496 -0.09869136 0.83778226
0.75920624 0.00063130545 -0.09920385 -0.017686857 0.21486315 0.34700996 -0.03601688 -0.08034001
0.33352885 -0.05906498 0.14067069 0.31953147 -0.00025617357 0.43835047 -0.10472745 0.050455455
0.10512248 0.08875789 0.010221951 0.031493492 0.21411484 -0.050949045 0.1756035 0.021089688
0.12135477 0.08178138 0.0040932572 0.9150488 0.022945 -0.04288952 -0.049271416 -0.06910691
0.022371167 0.0055342615 -0.009793231 0.0018538302 -0.059067257 0.5191978 -0.109648675 -0.06286901
-0.028177321 -0.09411719 0.15120578 0.06626561 0.011228515 0.4808044 -0.11123898 -0.045574453
-0.0917525 -0.066175945 0.12098009 -0.071460865 0.300775 0.114050455 0.59507024 0.11919801
00000000: d4e8 a93d 2295 753e 94cd c53e 4f5e ba3e
00000010: 2734 90bc b072 2f3c b21e cabd e678 563f
00000020: 575b 423f 317e 253a 632b cbbd 07e4 90bc
00000030: 1605 5c3e 4aab b13e 7086 13bd 4e89 a4bd
00000040: 4bc4 aa3e 1fee 71bd fa0b 103e a199 a33e
00000050: 094f 86b9 796f e03e 587b d6bd 61aa 4e3d
00000060: 744a d73d b2c6 b53d f879 273c 52ff 003d
00000070: ec40 5b3e f2af 50bd 67d1 333e 48c4 ac3c
00000080: da88 f83d ff7c a73d bb20 863b a340 6a3f
00000090: 27f7 bb3c ecac 2fbd d3d0 49bd ec87 8dbd
000000a0: bd43 b73c c058 b53b ca73 20bc 38fc f23a
000000b0: 82f0 71bd 26ea 043f 7c8f e0bd 78c1 80bd
000000c0: 20d4 e6bc 83c0 c0bd b0d5 1a3e 44b6 873d
000000d0: cef7 373c ff2b f63e 43d1 e3bd 47ac 3abd
000000e0: bce8 bbbd 4187 87bd 69c4 f73d 135a 92bd
000000f0: 2eff 993e 4993 e93d 8656 183f 161e f43d

exp_avg f4 [256, 10]
0.00017302092 0.00017867849 0.00017823756 0.00018438922 0.0001814418 0.00018227832 0.00017727364 0.00017585342
0.0001728385 0.0001705009 -0.00012887665 -0.00011623694 -0.00011359542 -0.00012812973 -0.00014609024 -0.0001660159
-0.00017854618 -0.00018603021 -0.00022907647 -0.00027409202 6.995139e-05 7.433761e-05 6.482058e-05 7.1247196e-05
6.546146e-05 5.696376e-05 4.573511e-05 3.3881453e-05 2.7523141e-05 2.1923424e-05 -8.5092695e-05 -8.664486e-05
-9.3049806e-05 -9.567886e-05 -9.488495e-05 -9.137683e-05 -8.7094006e-05 -8.177961e-05 -8.1429345e-05 -7.8744146e-05
1.9378088e-35 1.9324578e-35 1.927105e-35 1.9378088e-35 1.9003394e-35 1.9752824e-35 2.0341661e-35 2.0876976e-35
2.0529049e-35 2.1171392e-35 6e-45 6e-45 6e-45 6e-45 6e-45 6e-45
6e-45 6e-45 6e-45 6e-45 6e-45 6e-45 6e-45 6e-45
6e-45 6e-45 6e-45 6e-45 6e-45 6e-45 0.003387741 0.003371205
0.0033934484 0.0033614712 0.0033782104 0.0034017193 0.0034388483 0.0034328026 0.0034492153 0.0034644695
0.0 6e-45 6e-45 6e-45 6e-45 6e-45 6e-45 6e-45
6e-45 6e-45 0.0 0.0 0.0 0.0 0.0 0.0
0.0 0.0 0.0 0.0 0.0 0.0 0.0 0.0
0.0 0.0 0.0 0.0 0.0 0.0 0.009586394 0.009685141
0.009740096 0.009724933 0.009682224 0.009682014 0.009640542 0.0096492665 0.009682929 0.009718756
0.00035524974 0.00032091353 0.00033549147 0.00038443514 0.00039911235 0.00038952683 0.00037942492 0.000417236
0.0004725064 0.00052182376 -3.7068592e-05 -3.534837e-05 -1.8097235e-05 -4.971009e-06 -1.134602e-05 -1.1467661e-05
-4.710231e-06 6.3974917e-06 2.1558148e-05 3.897419e-05 7.616873e-05 7.494937e-05 8.90289e-05 9.66284e-05
9.263816e-05 9.084202e-05 9.204782e-05 0.0001013916 0.000102283986 0.00010062539 0.0 0.0
0.0 0.0 0.0 0.0 0.0 0.0 0.0 0.0
-8.892398e-06 -1.3283862e-05 -1.5559048e-05 -1.3082948e-05 -1.2254875e-05 -7.8388075e-06 -8.951018e-06 -1.1290542e-05
-1.9463889e-05 -1.6907192e-05 -0.0002814248 -0.00029568808 -0.00032142416 -0.00035358375 -0.00039045137 -0.00043014032
-0.00048502441 -0.0005392768 -0.00060359127 -0.00063904864 0.0 0.0 0.0 0.0
0.0 0.0 0.0 0.0 0.0 0.0 6e-45 6e-45
6e-45 6e-45 6e-45 6e-45 6e-45 6e-45 6e-45 6e-45
0.0 0.0 0.0 0.0 0.0 0.0 0.0 0.0
0.0 0.0 6e-45 6e-45 6e-45 2.7138107e-38 3.980254e-37 8.684194e-37
1.2573973e-36 1.5921016e-36 1.9810798e-36 2.3700586e-36 0.00035895462 0.00041652462 0.00047173016 0.00052282424
0.0005493658 0.0005906211 0.0006326056 0.0006788218 0.00072974036 0.0007457764 0.0 0.0
0.0 0.0 0.0 0.0 0.0 0.0 0.0 0.0
0.0005512868 0.000541447 0.00053856784 0.0005358397 0.00052042643 0.00050492655 0.00049146765 0.0004922342
0.0004856651 0.00048360458 0.0 0.0 0.0 0.0 0.0 0.0
00000000: f36c 3539 a45b 3b39 48e5 3a39 9b58 4139
00000010: 6a41 3e39 f721 3f39 88e2 3939 4b65 3839
00000020: fb3b 3539 7dc8 3239 1023 07b9 3bc4 f3b8
00000030: 143a eeb8 905a 06b9 cd2f 19b9 8e14 2eb9
00000040: 2038 3bb9 1b11 43b9 3f34 70b9 02b4 8fb9
00000050: deb2 9238 b3e5 9b38 49f0 8738 8c6a 9538
00000060: 5b48 8938 5fec 6e38 b3d3 3f38 ef1b 0e38
00000070: 7fe1 e637 32e8 b737 cb73 b2b8 1bb5 b5b8
00000080: bc23 c3b8 32a7 c8b8 f8fc c6b8 90a1 bfb8
00000090: 3da6 b6b8 1881 abb8 0cc5 aab8 7123 a5b8
000000a0: 2c10 ce05 817e cd05 caec cc05 2c10 ce05
000000b0: 2914 ca05 4d0c d205 454f d805 8900 de05
000000c0: 634d da05 0322 e105 0400 0000 0400 0000
000000d0: 0400 0000 0400 0000 0400 0000 0400 0000
000000e0: 0400 0000 0400 0000 0400 0000 0400 0000
000000f0: 0400 0000 0400 0000 0400 0000 0400 0000
00000100: 0400 0000 0400 0000 0400 0000 0400 0000
00000110: 0400 0000 0400 0000 dd04 5e3b 6fef 5c3b
00000120: 9e64 5e3b 214c 5c3b f764 5d3b 61ef 5e3b
00000130: 4d5e 613b dff8 603b 3b0c 623b 270c 633b
00000140: 0000 0000 0400 0000 0400 0000 0400 0000
00000150: 0400 0000 0400 0000 0400 0000 0400 0000
00000160: 0400 0000 0400 0000 0000 0000 0000 0000
00000170: 0000 0000 0000 0000 0000 0000 0000 0000
00000180: 0000 0000 0000 0000 0000 0000 0000 0000
00000190: 0000 0000 0000 0000 0000 0000 0000 0000
000001a0: 0000 0000 0000 0000 0000 0000 0000 0000
000001b0: 0000 0000 0000 0000 4010 1d3c 6dae 1e3c
000001c0: ec94 1f3c 5355 1f3c 31a2 1e3c 4fa1 1e3c
000001d0: 5df3 1d3c f517 1e3c 26a5 1e3c 6b3b 1f3c
000001e0: d040 ba39 4940 a839 e7e4 af39 038e c939
000001f0: f43f d139 6839 cc39 8ded c639 78c0 da39
00000200: bcba f739 00cb 083a 197a 1bb8 0643 14b8
00000210: 84cf 97b7 a4cc a6b6 c95a 3eb7 3b65 40b7
00000220: 940c 9eb6 09aa d636 c5d7 b437 3878 2338
00000230: c7bc 9f38 232e 9d38 07b5 ba38 faa4 ca38
00000240: bc46 c238 7082 be38 cc09 c138 33a2 d438
00000250: 4c81 d638 d806 d338 0000 0000 0000 0000
00000260: 0000 0000 0000 0000 0000 0000 0000 0000
00000270: 0000 0000 0000 0000 0000 0000 0000 0000
00000280: 8f30 15b7 c1dd 5eb7 cd84 82b7 d57e 5bb7
00000290: 4a9a 4db7 6c83 03b7 542c 16b7 826c 3db7
000002a0: 6246 a3b7 ebd3 8db7 328c 93b9 9506 9bb9
000002b0: d284 a8b9 3561 b9b9 7fb5 ccb9 7584 e1b9
000002c0: e04a feb9 415e 0dba 533a 1eba d485 27ba
000002d0: 0000 0000 0000 0000 0000 0000 0000 0000
000002e0: 0000 0000 0000 0000 0000 0000 0000 0000
000002f0: 0000 0000 0000 0000 0400 0000 0400 0000
00000300: 0400 0000 0400 0000 0400 0000 0400 0000
00000310: 0400 0000 0400 0000 0400 0000 0400 0000
00000320: 0000 0000 0000 0000 0000 0000 0000 0000
00000330: 0000 0000 0000 0000 0000 0000 0000 0000
00000340: 0000 0000 0000 0000 0400 0000 0400 0000
00000350: 0400 0000 00c1 1301 e770 0703 00c1 9303
00000360: 60ef d503 e770 0704 1988 2804 4e9f 4904
00000370: 1332 bc39 fd60 da39 8d52 f739 240e 093a
00000380: 5103 103a e9d3 1a3a 71d5 253a f6f2 313a
00000390: 0c4c 3f3a 3580 433a 0000 0000 0000 0000
000003a0: 0000 0000 0000 0000 0000 0000 0000 0000
000003b0: 0000 0000 0000 0000 0000 0000 0000 0000
000003c0: 3b84 103a e5ef 0d3a ad2e 0d3a 9877 0c3a
000003d0: 3a6d 083a 0c5d 043a d6d5 003a 4709 013a
000003e0: dea0 fe39 4f8c fd39 0000 0000 0000 0000
000003f0: 0000 0000 0000 0000 0000 0000 0000 0000

exp_avg_sq f4 [256, 10]
5.610116e-07 5.754761e-07 5.916287e-07 6.084941e-07 6.2216634e-07 6.3005916e-07 6.3502097e-07 6.396827e-07
6.458199e-07 6.477361e-07 1.7309142e-06 1.9396064e-06 2.1556227e-06 2.3893576e-06 2.708625e-06 3.0917324e-06
3.5037124e-06 3.92063e-06 4.2965553e-06 4.673749e-06 8.234521e-06 8.255699e-06 8.256817e-06 8.229929e-06
8.181361e-06 8.108217e-06 8.015522e-06 7.91998e-06 7.808725e-06 7.682613e-06 6.060098e-07 6.0955523e-07
6.150255e-07 6.22002e-07 6.312178e-07 6.418242e-07 6.52631e-07 6.6031976e-07 6.617518e-07 6.5708315e-07
2.7471404e-12 2.7400497e-12 2.7340094e-12 2.7630478e-12 2.6887667e-12 2.858567e-12 2.9977255e-12 3.1283797e-12
3.0553019e-12 3.2101223e-12 4.3356338e-19 4.4193587e-19 4.49545e-19 4.5567994e-19 4.57695e-19 4.557191e-19
4.4931944e-19 4.4084854e-19 4.2915932e-19 4.1738725e-19 9.210774e-25 9.246372e-25 9.300042e-25 9.32451e-25
9.35254e-25 9.380876e-25 9.405435e-25 9.447853e-25 9.47113e-25 9.463858e-25 8.032281e-05 8.0325706e-05
8.0213205e-05 7.980444e-05 7.889755e-05 7.765604e-05 7.6420816e-05 7.5023505e-05 7.382776e-05 7.269569e-05
0.0 2.836697e-34 7.1747843e-32 4.3004285e-31 9.790861e-31 1.6495058e-30 2.5649494e-30 3.790409e-30
4.2514132e-30 4.9345902e-30 0.0 0.0 0.0 0.0 0.0 0.0
0.0 0.0 0.0 0.0 0.0 0.0 0.0 0.0
0.0 0.0 0.0 0.0 0.0 0.0 0.001005351 0.0010022364
0.0009997246 0.0009978531 0.000997254 0.0009972969 0.0009987855 0.0010009633 0.0010034366 0.0010062177
1.5338993e-06 1.6466826e-06 1.9259314e-06 2.4378419e-06 3.0607996e-06 3.670854e-06 4.2931065e-06 4.890969e-06
5.429079e-06 5.7186867e-06 2.9460247e-07 2.748043e-07 2.6183397e-07 2.671565e-07 2.9306602e-07 3.373473e-07
4.092587e-07 5.1771525e-07 6.494712e-07 7.617237e-07 2.3030165e-07 2.5747278e-07 3.0980195e-07 4.0293992e-07
5.2123875e-07 6.469359e-07 7.676985e-07 8.825243e-07 1.0005346e-06 1.0801315e-06 0.0 0.0
0.0 0.0 0.0 0.0 0.0 0.0 0.0 0.0
1.6636038e-06 1.6990847e-06 1.7444736e-06 1.7984745e-06 1.8587117e-06 1.9201648e-06 1.9890108e-06 2.063311e-06
2.1328183e-06 2.1895182e-06 1.056672e-06 1.0866089e-06 1.1548824e-06 1.3034319e-06 1.5332947e-06 1.8179571e-06
2.1859e-06 2.580188e-06 2.9183495e-06 3.0958786e-06 0.0 0.0 0.0 0.0
0.0 0.0 0.0 0.0 0.0 0.0 3.164678e-15 3.2108472e-15
3.2766927e-15 3.3375885e-15 3.3782975e-15 3.3889265e-15 3.3871192e-15 3.3627225e-15 3.3209816e-15 3.2510103e-15
0.0 0.0 0.0 0.0 0.0 0.0 0.0 0.0
0.0 0.0 1.804153e-22 1.8287885e-22 1.8627298e-22 1.1685694e-18 2.5133154e-16 1.1964201e-15
2.5082494e-15 4.0213008e-15 6.226293e-15 8.911364e-15 3.689156e-06 3.9427405e-06 4.204967e-06 4.497225e-06
4.8618035e-06 5.2971786e-06 5.7804923e-06 6.223596e-06 6.524156e-06 6.6814573e-06 0.0 0.0
0.0 0.0 0.0 0.0 0.0 0.0 0.0 0.0
5.3435797e-06 5.4064026e-06 5.496152e-06 5.6032427e-06 5.7316875e-06 5.860013e-06 6.004962e-06 6.1409246e-06
6.251443e-06 6.3077064e-06 0.0 0.0 0.0 0.0 0.0 0.0
00000000: 6c98 1635 6b7a 1a35 6ad0 1e35 6557 2335
00000010: f202 2735 5621 2935 4f76 2a35 a9b6 2b35
00000020: 685c 2d35 16e0 2d35 c251 e835 2f2a 0236
00000030: 51a9 1036 da58 2036 d3c5 3536 8f7b 4f36
00000040: 5221 6b36 f58d 8336 212b 9036 33d3 9c36
00000050: 0027 0a37 f581 0a37 c286 0a37 4713 0a37
00000060: ae42 0937 8708 0837 687a 0637 0ee0 0437
00000070: 3802 0337 92e4 0037 adac 2235 51a0 2335
00000080: 3b18 2535 a7f7 2635 f570 2935 d349 2c35
00000090: 7630 2f35 d440 3135 3da3 3135 6962 3035
000000a0: 1550 412c 59d0 402c 8963 402c a56e 422c
000000b0: 8434 3d2c 5d27 492c 39f2 522c e123 5c2c
000000c0: 6dff 562c 6ce4 612c 3fee ff20 bb6f 0221
000000d0: a9ae 0421 347e 0621 7516 0721 2981 0621
000000e0: 9e9d 0421 931d 0221 b954 fd20 c761 f620
000000f0: a387 8e17 a714 8f17 43e9 8f17 314a 9017
00000100: 3ab9 9017 7a29 9117 c48a 9117 cd32 9217
00000110: 038f 9217 3472 9217 fb72 a838 8974 a838
00000120: 2338 a838 af5c a738 cd75 a538 45db a238
00000130: 1d44 a038 f055 9d38 fad3 9a38 3474 9838
00000140: 0000 0000 e687 bc07 9f44 ba0b 908e 0b0d
00000150: a5dd 9e0d e5d2 050e ea17 500e dcc1 990e
00000160: 3375 ac0e b72b c80e 0000 0000 0000 0000
00000170: 0000 0000 0000 0000 0000 0000 0000 0000
00000180: 0000 0000 0000 0000 0000 0000 0000 0000
00000190: 0000 0000 0000 0000 0000 0000 0000 0000
000001a0: 0000 0000 0000 0000 0000 0000 0000 0000
000001b0: 0000 0000 0000 0000 fbc5 833a 795d 833a
000001c0: 3109 833a 65ca 823a 4bb6 823a bbb7 823a
000001d0: aee9 823a c132 833a bf85 833a 10e3 833a
000001e0: 61e0 cd35 9503 dd35 403f 0136 ce99 2336
000001f0: 2368 4d36 cb58 7636 810d 9036 1b1d a436
00000200: 6f2b b636 25e3 bf36 db29 9e34 d188 9334
00000210: 3092 8c34 b66d 8f34 b056 9d34 a91c b534
00000220: 16b8 db34 1ff9 0a35 5257 2e35 4179 4c35
00000230: d648 7734 ca3a 8a34 db52 a634 a453 d834
00000240: 41eb 0b35 19a9 2d35 d713 4e35 9ce6 6c35
00000250: 1b4a 8635 09f9 9035 0000 0000 0000 0000
00000260: 0000 0000 0000 0000 0000 0000 0000 0000
00000270: 0000 0000 0000 0000 0000 0000 0000 0000
00000280: fe48 df35 1b0c e435 a823 ea35 1d63 f135
00000290: d978 f935 2edc 0036 f27a 0536 6a77 0a36
000002a0: 8a21 0f36 a3ef 1236 f9d2 8d35 99d7 9135
000002b0: 7501 9b35 94f1 ae35 9bcb cd35 8800 f435
000002c0: 7ab1 1236 4b27 2d36 ddd8 4336 cac2 4f36
000002d0: 0000 0000 0000 0000 0000 0000 0000 0000
000002e0: 0000 0000 0000 0000 0000 0000 0000 0000
000002f0: 0000 0000 0000 0000 010a 6427 ad5d 6727
00000300: 501c 6c27 a47f 7027 976e 7327 a932 7427
00000310: 5211 7427 484f 7227 4c4d 6f27 8e42 6a27
00000320: 0000 0000 0000 0000 0000 0000 0000 0000
00000330: 0000 0000 0000 0000 0000 0000 0000 0000
00000340: 0000 0000 0000 0000 d51b 5a1b 4316 5d1b
00000350: b230 611b 4e73 ac21 fde1 9025 1c6c ac26
00000360: 09bd 3427 f4e1 9027 6b53 e027 6a88 2028
00000370: 3893 7736 e24b 8436 6418 8d36 dee6 9636
00000380: 9322 a336 6bbe b136 0df6 c136 48d4 d036
00000390: 13ea da36 4831 e036 0000 0000 0000 0000
000003a0: 0000 0000 0000 0000 0000 0000 0000 0000
000003b0: 0000 0000 0000 0000 0000 0000 0000 0000
000003c0: 004d b336 a568 b536 966b b836 7d03 bc36
000003d0: d252 c036 21a1 c436 3b7e c936 240e ce36
000003e0: 7dc3 d136 c9a6 d336 0000 0000 0000 0000
000003f0: 0000 0000 0000 0000 0000 0000 0000 0000

exp_avg f4 [256]
0.00041456937 -0.001522116 0.00022052512 -6.35974e-05 2.676534e-35 6e-45 6e-45 0.0052709975
6e-45 0.0 0.0 0.014909118 0.0007523548 0.00011172292 -5.4280932e-05 0.0
6.0837487e-05 -0.0019860077 0.0 6e-45 0.0 9.0460295e-36 0.0017206105 0.0
0.0004869544 0.0 6e-45 6e-45 -6.54608e-05 0.0 0.0022344638 -0.0002369942
-0.00017157437 0.0 8.734765e-05 0.033673547 6e-45 0.0 0.0 0.0007274849
2.3677467e-08 -0.0008550418 0.001257957 0.00034482012 0.0002642791 0.0020449113 -9.21674e-05 -0.003380727
0.0034356518 0.0042746332 0.0 -0.0017836342 0.00044599365 6e-45 -0.00032679076 0.0
-0.004354552 0.0 0.000100746714 -0.0008241193 0.0 0.0 -0.0005418334 -4.9530154e-05
9.731044e-05 -3.0580165e-06 0.0007884403 0.0 -9.3531096e-05 9.702454e-05 0.0 0.00015601635
0.0 -0.00014258067 0.0 0.0010588123 0.0 -0.0004187479 -0.0047306493 1.9600877e-08
-0.00091442507 0.002151877 0.00062927057 0.0 0.0008331436 0.0 -0.00020918383 0.0011123058
0.00019781147 -0.0005606562 0.0005944057 6e-45 -1.1772928e-05 0.0 0.0023688124 0.00015702906
6e-45 0.0 0.0 -7.951325e-05 0.0 -0.00039148566 0.0062939227 0.00045928024
-0.0013823695 -0.0005005833 0.0 0.0 -0.0011114541 -8.388561e-05 0.0 0.0
6e-45 0.0 -0.0023111755 6e-45 0.0003070537 -0.00021473508 -1.0644907e-05 -2.4220539e-05
6e-45 -0.00054979284 -0.00021770362 -0.0004722274 0.0 4.5107787e-05 0.00027332964 0.0
6e-45 6e-45 0.00013351216 -0.0034294142 0.0001457018 0.0 -0.000227845 0.0
-0.00022333898 6e-45 0.011234103 0.00054403173 -8.730673e-05 0.0 0.00039500438 -0.0014284053
0.0 0.0 -0.0018397019 0.0017917538 -0.0020267211 -0.0010093302 0.0005523917 -0.00033696488
6.268108e-05 0.0 4.9888302e-05 -0.00011291219 6e-45 0.0 0.0012969725 6.161447e-05
0.000106971274 0.0010685017 -0.0015652288 6e-45 0.0 2.3670013e-05 0.0 -0.001653565
6e-45 4.4536817e-05 9.781693e-05 0.0 0.0 -0.001442921 0.0 0.0
0.0 5.8977217e-05 0.0 0.0 9.7027885e-05 0.0 6e-45 0.0
6e-45 0.00045298063 -0.0018279854 -0.004955313 0.0 0.0 -7.605988e-05 0.00016552082
4.9364836e-36 -0.001464869 0.0 -0.00013661227 0.00014905284 -0.0037141563 0.0 0.0001444754
-0.00093057944 -0.0014985921 0.0 0.0 0.0 0.0017703711 -0.0019109609 0.004952897
-6.774206e-05 0.0022119468 0.0 0.0 6e-45 -0.0011690711 0.0 -0.0013402096
0.0013770405 0.0 0.0 0.0 0.00043284922 3.0266003e-05 -8.840464e-06 -0.0008281941
-0.0044149416 -0.00018997348 0.00051786297 0.0045860917 0.00014002563 -0.0017284614 -0.0017894206 -0.00055034965
0.00010563611 0.015104022 0.00016840833 0.00093365996 -0.0047395644 -0.00011681947 -0.00043306296 0.0001561554
-0.0006570469 6e-45 0.0 6e-45 0.003490473 0.0012948856 0.00046460237 -0.00083260477
0.0012116926 0.00052034063 0.00027134444 0.0 0.0 -0.00050368824 0.0 -0.0004504279
00000000: 8f5a d939 bd81 c7ba c33c 6739 985f 85b8
00000010: 184f 0e06 0400 0000 0400 0000 55b8 ac3b
00000020: 0400 0000 0000 0000 0000 0000 6045 743c
00000030: ad39 453a c94c ea38 b5ab 63b8 0000 0000
00000040: c12b 7f38 ae27 02bb 0000 0000 0400 0000
00000050: 0000 0000 4563 4005 1c86 e13a 0000 0000
00000060: ea4d ff39 0000 0000 0400 0000 0400 0000
00000070: 0048 89b8 0000 0000 1570 123b a581 78b9
00000080: a5e8 33b9 0000 0000 6a2e b738 46ed 093d
00000090: 0400 0000 0000 0000 0000 0000 afb4 3e3a
000000a0: 4d63 cb32 e224 60ba 08e2 a43a f9c8 b439
000000b0: f18e 8a39 eb03 063b ff49 c1b8 308f 5dbb
000000c0: ac28 613b 3912 8c3b 0000 0000 d5c8 e9ba
000000d0: 41d4 e939 0400 0000 1d55 abb9 0000 0000
000000e0: a1b0 8ebb 0000 0000 fb47 d338 b609 58ba
000000f0: 0000 0000 0000 0000 d309 0eba 99be 4fb8
00000100: 2513 cc38 5338 4db6 55af 4e3a 0000 0000
00000110: 2026 c4b8 a779 cb38 0000 0000 5298 2339
00000120: 0000 0000 b581 15b9 0000 0000 d8c7 8a3a
00000130: 0000 0000 648b dbb9 9003 9bbb c95e a832
00000140: 07b6 6fba 8106 0d3b a2f5 243a 0000 0000
00000150: 5267 5a3a 0000 0000 5b58 5bb9 caca 913a
00000160: 9d6b 4f39 00f9 12ba e4d1 1b3a 0400 0000
00000170: 5784 45b7 0000 0000 143e 1b3b 2ba8 2439
00000180: 0400 0000 0000 0000 0000 0000 5ac0 a6b8
00000190: 0000 0000 5140 cdb9 403d ce3b 8dcb f039
000001a0: a030 b5ba 9439 03ba 0000 0000 0000 0000
000001b0: 36ae 91ba beeb afb8 0000 0000 0000 0000
000001c0: 0400 0000 0000 0000 1777 17bb 0400 0000
000001d0: 0dfc a039 822a 61b9 8797 32b7 362d cbb7
000001e0: 0400 0000 f91f 10ba 5f47 64b9 4a95 f7b9
000001f0: 0000 0000 1e32 3d38 af4d 8f39 0000 0000
00000200: 0400 0000 0400 0000 66ff 0b39 06c0 60bb
00000210: 87c7 1839 0000 0000 ade9 6eb9 0000 0000
00000220: 1a30 6ab9 0400 0000 3e0f 383c 5a9d 0e3a
00000230: 7218 b7b8 0000 0000 9718 cf39 5439 bbba
00000240: 0000 0000 0000 0000 2722 f1ba 48d9 ea3a
00000250: bdd2 04bb 804b 84ba 61ce 103a a9aa b0b9
00000260: a673 8338 0000 0000 283f 5138 45cb ecb8
00000270: 0400 0000 0000 0000 2dff a93a 0437 8138
00000280: c455 e038 f80c 8c3a 5d28 cdba 0400 0000
00000290: 0000 0000 f78e c637 0000 0000 6fbc d8ba
000002a0: 0400 0000 0bcd 3a38 1023 cd38 0000 0000
000002b0: 0000 0000 6520 bdba 0000 0000 0000 0000
000002c0: 0000 0000 4e5e 7738 0000 0000 0000 0000
000002d0: 737b cb38 0000 0000 0400 0000 0000 0000
000002e0: 0400 0000 087e ed39 0399 efba 2e60 a2bb
000002f0: 0000 0000 0000 0000 5682 9fb8 a88f 2d39
00000300: 8cf9 d104 d900 c0ba 0000 0000 943f 0fb9
00000310: 114b 1c39 3469 73bb 0000 0000 527e 1739
00000320: 21f2 73ba 686c c4ba 0000 0000 0000 0000
00000330: 0000 0000 cc0b e83a 3579 faba e94b a23b
00000340: be10 8eb8 4ff6 103b 0000 0000 0000 0000
00000350: 0400 0000 843b 99ba 0000 0000 f9a9 afba
00000360: d07d b43a 0000 0000 0000 0000 0000 0000
00000370: 0af0 e239 bfe3 fd37 8151 14b7 2a1b 59ba
00000380: 37ab 90bb 9e33 47b9 32c1 073a ed46 963b
00000390: d8d3 1239 8a8d e2ba fe8a eaba 5745 10ba
000003a0: f488 dd38 dc76 773c c496 3039 dcc0 743a
000003b0: 594e 9bbb fafc f4b8 ba0c e3b9 a5bd 2339
000003c0: ac3d 2cba 0400 0000 0000 0000 0400 0000
000003d0: 6bc0 643b 27b9 a93a e095 f339 2943 5aba
000003e0: a8d1 9e3a 7867 083a 3c43 8e39 0000 0000
000003f0: 0000 0000 f209 04ba 0000 0000 6927 ecb9

exp_avg_sq f4 [256]
4.984767e-06 6.9658825e-05 2.1310603e-05 4.0015198e-06 6.1688003e-12 1.3643181e-18 2.2378923e-24 0.00023434452
6.2412336e-29 0.0 0.0 0.002427159 8.546556e-05 1.4704719e-05 2.1263864e-05 0.0
1.1432988e-05 2.3352688e-05 0.0 1.0492552e-14 0.0 1.298199e-13 4.8778744e-05 0.0
2.2684411e-05 0.0 9.76072e-10 2.6536571e-20 5.8738838e-06 0.0 0.00021943923 1.6486902e-05
1.4576941e-05 0.0 4.569323e-07 0.016436664 7.680767e-18 0.0 0.0 8.999311e-06
2.8995768e-07 0.000100123834 0.00015750459 0.00023215241 2.5480276e-05 9.6496566e-05 1.5090834e-06 7.0888294e-05
0.00076296425 0.003073108 0.0 0.00016995987 0.00013885072 3.3494322e-26 6.9471935e-07 0.0
9.3843766e-05 0.0 9.014725e-07 5.5496707e-06 0.0 0.0 1.7915176e-05 4.5904868e-05
0.00013671066 1.5535809e-06 1.1302161e-05 0.0 3.9806497e-07 6.41594e-07 0.0 4.051654e-06
0.0 7.2540526e-05 0.0 0.00025662003 0.0 6.7173073e-06 8.802601e-05 1.5416296e-07
3.4173307e-05 0.00051212596 5.7086554e-06 0.0 6.926666e-05 0.0 4.8862586e-07 4.3202213e-05
0.0003759588 1.3106737e-05 8.025578e-06 3.1205367e-29 1.6452283e-07 0.0 3.3407065e-05 2.1600479e-07
7.1324817e-19 0.0 0.0 1.7361956e-06 0.0 3.5857727e-05 0.00048497223 5.9723966e-06
4.2645286e-05 9.016637e-05 0.0 0.0 0.00013850174 7.17874e-06 0.0 0.0
5.9782767e-18 0.0 0.0005044556 5.6061943e-25 1.3525108e-05 2.2738679e-05 1.5492511e-05 6.313847e-06
6.2701474e-08 2.1693866e-06 1.9293557e-05 3.062982e-05 0.0 2.421313e-07 8.9184664e-07 0.0
9.908665e-27 1.8361768e-19 1.2762481e-05 0.0010008038 1.4679417e-06 0.0 9.933245e-06 0.0
0.00035756576 1.9864852e-29 0.020534806 1.3195796e-05 6.005432e-07 0.0 0.00019015031 2.196679e-05
0.0 0.0 0.000114553804 9.6319935e-05 0.00028600296 6.52274e-05 0.000101505575 6.430805e-07
6.737708e-07 0.0 2.011383e-07 1.0264333e-06 8.29283e-15 0.0 1.0163191e-05 1.4672125e-06
2.3210966e-06 3.516663e-05 2.0428683e-05 4.5962067e-11 0.0 4.8800284e-05 0.0 3.0492552e-05
1.6916989e-20 5.8420487e-06 6.525712e-06 0.0 0.0 3.0658543e-05 0.0 0.0
0.0 5.632803e-05 0.0 0.0 0.0008322085 0.0 8.781487e-30 0.0
8.587384e-16 4.649843e-06 0.0004939213 0.00010898727 0.0 0.0 1.0778165e-05 1.3793249e-07
1.10438046e-13 3.1800402e-05 0.0 1.3460801e-05 0.00015621686 0.0012938209 0.0 8.855206e-07
3.213339e-05 0.00015757036 0.0 0.0 0.0 7.071095e-05 0.0002365392 0.0016773194
2.207564e-07 0.0001799086 0.0 0.0 4.8249585e-19 0.00018077783 0.0 1.1994249e-05
1.6353295e-05 0.0 0.0 0.0 1.5289831e-06 6.9539865e-06 1.3726088e-06 9.0097565e-06
0.00046307326 5.4420902e-06 9.859655e-06 0.0004075672 3.2834719e-06 0.00029301882 0.000101915575 0.0001858578
2.9353064e-06 0.0015901191 7.80064e-06 5.6659672e-05 0.0005985409 9.240945e-05 3.0863528e-06 8.442825e-06
1.4153162e-05 4.114608e-24 0.0 5.4113143e-13 0.00048393564 0.0012112882 5.5343677e-05 2.4727326e-05
1.9231471e-05 0.00029751688 8.0960845e-06 0.0 0.0 8.831615e-06 0.0 2.3015825e-06
00000000: d342 a736 cc15 9238 2cc4 b237 cb44 8636
00000010: 9d0b d92c 7b56 c921 0626 2d18 61ba 7539
00000020: ec3b 9e10 0000 0000 0000 0000 f910 1f3b
00000030: f93b b338 4ab4 7637 cd5f b237 0000 0000
00000040: 4fd0 3f37 84e5 c337 0000 0000 5b04 3d28
00000050: 0000 0000 0a2a 122a c797 4c38 0000 0000
00000060: 674a be37 0000 0000 7b26 8630 7ea1 fa1e
00000070: 4718 c536 0000 0000 4519 6639 5a4d 8a37
00000080: 7c8f 7437 0000 0000 4c50 f534 2fa6 863c
00000090: 66af 0d23 0000 0000 0000 0000 bffb 1637
000000a0: 7bab 9b34 93f9 d138 d127 2539 f06d 7339
000000b0: 7abe d537 335e ca38 b68b ca35 dda9 9438
000000c0: aa01 483a 3266 493b 0000 0000 4137 3239
000000d0: 7598 1139 19db 2515 c07c 3a35 0000 0000
000000e0: fdcd c438 0000 0000 b8fc 7135 4f37 ba36
000000f0: 0000 0000 0000 0000 8c48 9637 fa89 4038
00000100: fd59 0f39 a284 d035 699e 3d37 0000 0000
00000110: a2b5 d534 013a 2c35 0000 0000 71f3 8736
00000120: 0000 0000 e620 9838 0000 0000 f58a 8639
00000130: 0000 0000 3b65 e136 9b9a b838 fe87 2534
00000140: 4f55 0f38 3140 063a fa8c bf36 0000 0000
00000150: 4143 9138 0000 0000 1d2a 0335 0634 3538
00000160: 561c c539 02e5 5b37 98a5 0637 e23a 1e10
00000170: b1a7 3034 0000 0000 901e 0c38 f2ee 6734
00000180: 8283 5221 0000 0000 0000 0000 3a07 e935
00000190: 0000 0000 f165 1638 df43 fe39 7f66 c836
000001a0: 07de 3238 b417 bd38 0000 0000 0000 0000
000001b0: c73a 1139 e8e0 f036 0000 0000 0000 0000
000001c0: 3a8f dc22 0000 0000 713d 043a d980 2d17
000001d0: e6e9 6237 f1be be37 eaf5 8137 88db d336
000001e0: 80a6 8633 c795 1136 99d8 a137 8578 0038
000001f0: 0000 0000 46fe 8134 3c67 6f35 0000 0000
00000200: e742 4414 0ac7 5820 701e 5637 672d 833a
00000210: 1806 c535 0000 0000 f6a6 2637 0000 0000
00000220: aa77 bb39 1b74 c90f 9c38 a83c 8363 5d37
00000230: 0435 2135 0000 0000 1663 4739 5345 b837
00000240: 0000 0000 0000 0000 9b3c f038 5fff c938
00000250: abf2 9539 b2ca 8838 64df d438 28a0 2c35
00000260: 2ddd 3435 0000 0000 7af8 5734 fbc3 8935
00000270: ee63 1528 0000 0000 9382 2a37 0aed c435
00000280: 23c4 1b36 e27f 1338 435e ab37 b024 4a2e
00000290: 0000 0000 e8ae 4c38 0000 0000 42ca ff37
000002a0: c5c6 9f1e d106 c436 70f7 da36 0000 0000
000002b0: 0000 0000 5c97 0038 0000 0000 0000 0000
000002c0: 0000 0000 c341 6c38 0000 0000 0000 0000
000002d0: 9128 5a3a 0000 0000 161c 320f 0000 0000
000002e0: b683 7726 d905 9c36 7f7a 013a 1890 e438
000002f0: 0000 0000 0000 0000 ded3 3437 981a 1434
00000300: 33af f829 6c61 0538 0000 0000 b3d5 6137
00000310: 25ce 2339 6d95 a93a 0000 0000 83b4 6d35
00000320: f7c6 0638 7939 2539 0000 0000 0000 0000
00000330: 0000 0000 a74a 9438 8207 7839 80d9 db3a
00000340: 0f09 6d34 d9a5 3c39 0000 0000 0000 0000
00000350: 5b68 0e21 2e8f 3d39 0000 0000 e83a 4937
00000360: 6f2e 8937 0000 0000 0000 0000 0000 0000
00000370: 7637 cd35 4a56 e936 7b3a b835 9c28 1737
00000380: a4c8 f239 339b b636 e56a 2537 beae d539
00000390: 9e59 5c36 52a0 9939 82bb d538 d3e2 4239
000003a0: 2efc 4436 8b6b d03a 7edf 0237 dca5 6d38
000003b0: 66e7 1c3a f2cb c138 231f 4f36 a8a5 0d37
000003c0: 5e73 6d37 1b2d 9f18 0000 0000 a150 182b
000003d0: beb8 fd39 16c4 9e3a d220 6838 876d cf37
000003e0: 4553 a137 0afc 9b39 6bd4 0737 0000 0000
000003f0: 0000 0000 7f2b 1437 0000 0000 e374 1a36
